app/src/main/assets/animal_disease_classifier.pt (torch, 296535 bytes, 3 tensors)

weight f4 [64, 1112]
0.0160096 -0.006496528 -0.00033748668 -0.0064094253 -0.01689783 0.03459026 0.008952524 0.028379692
0.02075481 0.01299055 0.0074608014 0.046733085 -0.011298199 -0.002976143 0.03508713 0.046097543
0.020188693 0.045721952 0.03139055 -0.0075075235 0.008230304 0.024935061 0.057200328 0.014400929
0.027903862 0.01425016 0.028632866 0.018584998 0.012811122 -0.009777385 0.025826303 -0.022985315
0.033239298 0.006765875 0.01253607 -0.050644875 0.024931714 0.016088117 0.045246247 0.05365173
0.053341005 0.046472076 0.009988855 0.014611635 -0.07547775 0.005733443 0.08280794 0.022013173
0.010931445 0.025863882 0.0541605 0.03178751 0.008822153 0.029075889 0.0026646007 0.046523765
0.015070744 0.022908239 -0.014101347 0.056453634 0.0451391 0.024824966 0.023017528 0.055538453
0.018596997 0.018527282 0.030685436 0.0063938177 0.026425032 0.028101454 0.057260145 -0.0011771235
0.03853612 0.014107697 0.0140168425 0.012431406 -0.0060590124 0.012065215 0.03361577 0.02220962
-0.026792482 0.038627177 0.027161995 0.03868552 0.0011247013 0.0369798 0.03814142 0.041503035
0.044938337 0.0008958778 0.017438067 -0.0016913749 0.019302689 0.025474343 0.041344043 0.022045378
0.071848996 0.053103793 0.018812973 0.06905165 0.0025211584 0.072684854 0.0025617138 0.0021645003
0.014531721 0.021855932 0.015841112 0.03372634 0.029604115 0.023812685 0.03575086 0.04395397
-0.09405073 0.025480263 0.018600557 -0.0088627525 0.031109717 0.03901664 0.019651346 -0.0158207
0.016491365 -0.016693989 0.04554225 0.0059476946 -0.009151758 0.02469354 0.023972552 0.049248878
0.016061272 -0.018295795 -0.001442346 -0.0002525351 -0.0115350075 0.020114405 0.006000946 0.04753802
-0.0019420868 0.006144936 0.045593318 0.038223274 0.060999166 -0.014654347 0.024070404 0.018180214
-0.009922248 -0.088266924 -0.0017508898 0.045897264 0.04857855 -0.018352551 0.0072687995 0.013845488
0.047311895 0.05667013 0.03416786 0.018982321 0.023900775 0.028989637 0.045376405 0.009395858
0.05566406 0.01998641 -0.0030868559 0.023236904 -0.06458412 0.027799007 -0.018428298 0.01862702
0.0266757 0.068774745 -0.00097610126 -0.016110655 0.046420716 0.025432644 0.06811508 0.023813086
0.013369159 0.051898506 0.023887271 0.051889867 0.024340173 -0.053456165 0.027771791 0.017262869
0.04764065 0.010722334 -0.005789826 0.066168785 -0.00070723426 0.03513317 0.06360663 -0.016348982
0.04371309 0.032193758 0.0030846938 0.036034174 -0.002344797 0.046053287 0.015145996 0.04022929
-0.06021954 0.021890067 0.034250427 -0.001069244 0.04167669 0.0075564105 0.043045852 0.012023024
0.029308077 0.0064382902 0.036238678 0.00055682263 -0.017795902 0.065311424 -0.01406174 0.040684298
0.014825505 0.022284046 -0.04480496 0.04237863 0.049443267 0.0406803 0.047610708 0.06418439
0.007385184 0.023057194 0.024360517 0.045473143 0.0041751 0.057025436 0.012327477 0.053584374
0.047292195 0.02475571 -0.006367891 -0.013342207 0.021273129 0.034512952 0.0017208202 -0.020290969
-0.052555196 -0.0155272 -0.01804822 0.042107698 0.04591835 0.043933794 -0.011873375 0.03928982
0.017463937 0.02779309 0.029981282 0.019032752 0.057442334 0.032763816 0.03914499 0.004745613
00000000: 9126 833c d4e0 d4bb b2f0 b0b9 2806 d2bb
00000010: 516d 8abc 84ae 0d3d 9bad 123c 877c e83c
00000020: fe05 aa3c 51d6 543c bd79 f43b 316b 3f3d
00000030: 151c 39bc 650b 43bb 86b7 0f3d c7d0 3c3d
00000040: c262 a53c f146 3b3d 6193 003d ac01 f6bb
00000050: 66d8 063c 9d44 cc3c e44a 6a3d e0f1 6b3c
00000060: a496 e43c 8179 693c 798f ea3c 913f 983c
00000070: bee5 513c 5331 20bc af91 d33c b34b bcbc
00000080: ee25 083d 46b4 dd3b 1764 4d3c 0071 4fbd
00000090: 983d cc3c 3acb 833c 2154 393d ebc1 5b3d
000000a0: 197c 5a3d 8159 3e3d 4ba8 233c a465 6f3c
000000b0: 1494 9abd 9bdf bb3b 3697 a93d f854 b43c
000000c0: ce19 333c 7ee0 d33c 67d7 5d3d 9f33 023d
000000d0: cb8a 103c 8f30 ee3c 95a0 2e3b b48f 3e3d
000000e0: 48eb 763c 0faa bb3c 5609 67bc ed3b 673d
000000f0: c7e3 383d ba5d cb3c 418f bc3c 4a7c 633d
00000100: bb58 983c 87c6 973c 0660 fb3c 3b83 d13b
00000110: 4f79 d83c 0535 e63c 9d89 6a3d b649 9aba
00000120: 0dd8 1d3d f823 673c e6a6 653c 19ad 4b3c
00000130: ae8a c6bb 2ead 453c b1b0 093d f3f0 b53c
00000140: e87b dbbc 8837 1e3d d582 de3c b574 1e3d
00000150: b76a 933a 2178 173d 2d3a 1c3d 16ff 293d
00000160: 4311 383d 57d9 6a3a 47da 8e3c 20b1 ddba
00000170: ac20 9e3c 92af d03c 5f58 293d 8298 b43c
00000180: 9125 933d 5d83 593d aa1d 9a3c f46a 8d3d
00000190: 053a 253b ccdb 943d 6de2 273b 4ada 0d3b
000001a0: 7516 6e3c 360b b33c 38c5 813c a124 0a3d
000001b0: 5484 f23c d212 c33c 7e6f 123d 1409 343d
000001c0: ab9d c0bd fcbb d03c 3260 983c 1435 11bc
000001d0: ced9 fe3c eacf 1f3d dcfb a03c 6a9a 81bc
000001e0: e618 873c d5c1 88bc 838a 3a3d e1e4 c23b
000001f0: 41f1 15bc 1b4a ca3c 1662 c43c 31b9 493d
00000200: ee92 833c 10e1 95bc 1a0d bdba b066 84b9
00000210: 54fd 3cbc f7c6 a43c 95a3 c43b 3ab7 423d
00000220: 9f8d feba 765b c93b 0fc0 3a3d 0290 1c3d
00000230: 43da 793d c918 70bc 4c2f c53c acee 943c
00000240: ed90 22bc 4ac5 b4bd 1d7e e5ba c5fe 3b3d
00000250: 4dfa 463d 1758 96bc 1c2f ee3b 30d8 623c
00000260: 1eca 413d f01e 683d 99f3 0b3d d080 9b3c
00000270: 8fcb c33c ad7b ed3c 9cdc 393d 16f1 193c
00000280: ffff 633d 8aba a33c d94c 4abb 525b be3c
00000290: ae44 84bd beba e33c f1f6 96bc b197 983c
000002a0: ff86 da3c c6d9 8c3d 0ce1 7fba 7efa 83bc
000002b0: a623 3e3d 1f58 d03c eb7f 8b3d a913 c33c
000002c0: 510a 5b3c 8793 543d 3daf c33c 788a 543d
000002d0: 0b65 c73c daf4 5abd ab81 e33c dc6a 8d3c
000002e0: d822 433d baac 2f3c 95b8 bdbb 8083 873d
000002f0: b065 39ba cde7 0f3d 3144 823d 4dee 85bc
00000300: 7f0c 333d 9add 033d 9328 4a3b 9298 133d
00000310: 2aab 19bb 5fa2 3c3d e926 783c 78c7 243d
00000320: c4a8 76bd cc52 b33c 2d4a 0c3d e025 8cba
00000330: 2db5 2a3d c49b f73b d950 303d 38fc 443c
00000340: 7e17 f03c 4bf8 d23b 026f 143d bcf7 113a
00000350: b6c8 91bc ffc1 853d 3663 66bc 94a4 263d
00000360: ade6 723c 088d b63c 6885 37bd 3795 2d3d
00000370: 0685 4a3d 63a0 263d 7203 433d 1b73 833d
00000380: 6aff f13b 71e2 bc3c b58f c73c 0c42 3a3d
00000390: 47cf 883b 8193 693d 30f9 493c 4a7b 5b3d
000003a0: 76b5 413d 7dcc ca3c bea9 d0bb 4699 5abc
000003b0: fc44 ae3c 745d 0d3d 258d e13a 3f39 a6bc
000003c0: 1e44 57bd cc65 7ebc dcd9 93bc 1f79 2c3d
000003d0: e114 3c3d ecf3 333d 8b88 42bc 5dee 203d
000003e0: 8810 8f3c 56ae e33c 4e9b f53c 93ea 9b3c
000003f0: a748 6b3d 5a33 063d 7f56 203d 1681 9b3b

bias f4 [64]
0.081026144 0.024120621 0.1382774 -0.020981703 0.13946024 0.08203914 0.075558424 0.07789874
-0.030384528 -0.038972583 0.12971984 0.0038272208 -6.255209e-05 -0.03820598 -0.017366631 0.1347845
0.13968758 0.012864373 0.08897735 0.0051888516 0.074423775 0.019483991 -0.030697845 0.085228376
0.071415715 0.07330318 0.09823988 0.103355475 0.12195637 -0.025306359 0.13926718 -0.044925954
-0.040604062 0.06202402 0.03219861 0.10164492 0.011955325 -0.04056349 0.08111711 -0.03243596
0.122946344 -0.0021190122 -0.019248107 0.09934796 -0.0056234216 -0.020000704 0.0015231387 0.12692836
0.065114945 0.070150994 0.1426938 0.083315685 0.012518404 0.15206814 0.09538852 -0.0025234509
0.12827085 -0.019475693 -0.012003992 -0.024340441 0.10402947 0.030192517 0.095951855 0.02058042
00000000: 09f1 a53d 9c98 c53c 9798 0d3e d2e1 abbc
00000010: aace 0e3e 2304 a83d 60be 9a3d 6089 9f3d
00000020: f9e8 f8bc b7a1 1fbd 47d5 043e 1cd2 7a3b
00000030: 662e 83b8 e07d 1cbd 7744 8ebc f304 0a3e
00000040: 430a 0f3e 17c5 523c c239 b63d 3e07 aa3b
00000050: 7e6b 983d e49c 9f3c 0c7a fbbc 378c ae3d
00000060: 6742 923d fa1f 963d fd31 c93d 09ac d33d
00000070: 43c4 f93d 484f cfbc 0e9c 0e3e 4704 38bd
00000080: 7250 26bd e60c 7e3d b1e2 033d 362b d03d
00000090: 44e0 433c e725 26bd ba20 a63d 92db 04bd
000000a0: 4bcb fb3d 20df 0abb 35ae 9dbc f176 cb3d
000000b0: ae44 b8bb 84d8 a3bc 0ea4 c73a 82f9 013e
000000c0: fc5a 853d 53ab 8f3d 531e 123e 6aa1 aa3d
000000d0: fe19 4d3c c0b7 1b3e 0e5b c33d 7b60 25bb
000000e0: 6f59 033e 7d8b 9fbc 64ac 44bc 9b65 c7bc
000000f0: 670d d53d 4c56 f73c 6882 c43d 4598 a83c

weight f4 [1, 64]
0.13194503 -0.1998251 0.21955925 -0.19267331 0.18165343 0.11307988 0.14746937 0.17812824
-0.040039815 -0.055047467 0.22311878 -0.046010032 -0.102940254 -0.048701227 -0.11136458 0.093125306
0.2838353 -0.11328757 0.17358612 -0.022815298 0.18330798 -0.14206193 -0.066950224 0.12912849
0.17197272 0.13634773 0.18758272 0.24955738 0.26421097 -0.06350672 0.315217 -0.073279515
-0.019653697 0.1380358 -0.20223998 0.17919585 -0.21960202 -0.043455888 0.14987408 -0.015197193
0.24673867 -0.20353532 -0.08568476 0.18171282 -0.035302542 -0.06366908 -0.20142484 0.23665196
0.13477841 0.10661247 0.17443801 0.16533168 -0.08168611 0.17491561 0.09019053 -0.093860306
0.07428375 -0.042387877 -0.087702796 -0.04653814 0.14479737 -0.16284215 0.1430879 -0.10184823
00000000: 991c 073e f39e 4cbe 24d4 603e 274c 45be
00000010: 5b03 3a3e 6d96 e73d 3602 173e 4067 363e
00000020: ca00 24bd 7479 61bd 4079 643e 0475 3cbd
00000030: 57d2 d2bd f07a 47bd 1d13 e4bd 7bb8 be3d
00000040: dc52 913e 5003 e8bd 8fc0 313e 26e7 babc
00000050: 16b5 3b3e af78 11be 331d 89bd 423a 043e
00000060: 9e19 303e bd9e 0b3e af15 403e f88b 7f3e
00000070: a946 873e d00f 82bd 1f64 a13e 9213 96bd
00000080: ca00 a1bc 4259 0d3e ff17 4fbe 1e7f 373e
00000090: 5adf 60be cdfe 31bd 9778 193e a6fd 78bc
000000a0: 10a9 7c3e 906b 50be 7e7b afbd ed12 3a3e
000000b0: 6699 10bd ef64 82bd 5042 4ebe e454 723e
000000c0: 5a03 0a3e a357 da3d e19f 323e b54c 293e
000000d0: 0c4b a7bd 141d 333e d0b5 b83d d539 c0bd
000000e0: 1422 983d e99e 2dbd 869d b3bd c79e 3ebd
000000f0: c345 143e 18c0 26be a285 123e ce95 d0bd
